# parameters
nc: 80  # number of classes
depth_multiple: 1.0  # model depth multiple
width_multiple: 1.0  # layer channel multiple

# anchors
anchors: 3

# yolov7-tiny backbone
backbone:
  # [from, number, module, args] c2, k=1, s=1, p=None, g=1, act=True
  [[-1, 1, Conv, [32, 3, 2, None, 1, nn.LeakyReLU(0.1)]],  # 0-P1/2  
  
   [-1, 1, Conv, [64, 3, 2, None, 1, nn.LeakyReLU(0.1)]],  # 1-P2/4    
   [-1, 1, GhostConv, [64, 3, 1]],

   [-1, 1, Yolov7_Tiny_E_ELAN, [64, 32, nn.LeakyReLU(0.1)]], # 3

   [-1, 1, MP, []],
   [-1, 1, Conv, [64, 1, 1]],
   [-3, 1, Conv, [64, 1, 1]],
   [-1, 1, GhostConv, [64, 3, 2]],
   [[-1, -3], 1, Concat, [1]],  # 8-P3/8 # sz 80
   [-1, 1, Yolov7_Tiny_E_ELAN, [128, 64, nn.LeakyReLU(0.1)]], # 9

   [-1, 1, MP, []],
   [-1, 1, Conv, [128, 1, 1]],
   [-3, 1, Conv, [128, 1, 1]],
   [-1, 1, GhostConv, [128, 3, 2]],
   [[-1, -3], 1, Concat, [1]],  # 14-P4/16 # sz 40 
   [-1, 1, Yolov7_Tiny_E_ELAN, [256, 128, nn.LeakyReLU(0.1)]], # 15

   [-1, 1, MP, []],
   [-1, 1, Conv, [256, 1, 1]], # 41 *
   [-3, 1, Conv, [256, 1, 1]], 
   [-1, 1, GhostConv, [256, 3, 2, 1]], # 43 *
   [[-1, -3], 1, Concat, [1]],  # 20-P5/32  # sz 20 ----> Loi tai day
   [-1, 1, Yolov7_Tiny_E_ELAN, [512, 256, nn.LeakyReLU(0.1)]], # 21
  ]

# yolov7-tiny head
head:
  [[-1, 1, Yolov7_Tiny_SPP, [256, nn.LeakyReLU(0.1)]], # 22-Yolov7-tiny-spp
   
   [-1, 1, Conv, [128, 1, 1, None, 1, nn.LeakyReLU(0.1)]], 
   [-1, 1, nn.Upsample, [None, 2, 'nearest']],
   [15, 1, Conv, [128, 1, 1, None, 1, nn.LeakyReLU(0.1)]], # route backbone P4
   [[-1, -2], 1, Concat, [1]],
   [-1, 1, Yolov7_Tiny_E_ELAN, [128, 64, nn.LeakyReLU(0.1)]], # 27

   [-1, 1, Conv, [64, 1, 1, None, 1, nn.LeakyReLU(0.1)]],
   [-1, 1, nn.Upsample, [None, 2, 'nearest']],
   [9, 1, Conv, [64, 1, 1, None, 1, nn.LeakyReLU(0.1)]], # route backbone P3
   [[-1, -2], 1, Concat, [1]],
   [-1, 1, Yolov7_Tiny_E_ELAN, [64, 32, nn.LeakyReLU(0.1)]], # 32
   
   [-1, 1, Conv, [64, 1, 1, None, 1, nn.LeakyReLU(0.1)]],
   [-1, 1, nn.Upsample, [None, 2, 'nearest']],
   [3, 1, Conv, [32, 1, 1, None, 1, nn.LeakyReLU(0.1)]], # route backbone P2
   [[-1, -2], 1, Concat, [1]],
   [-1, 1, Yolov7_Tiny_E_ELAN, [64, 32, nn.LeakyReLU(0.1)]], # 37
   [-1, 1, Yolov7_Tiny_E_ELAN, [64, 32, nn.LeakyReLU(0.1)]], # 38


   [-1, 1, GhostConv, [64, 3, 2]],
   [[-1, 32], 1, Concat, [1]],
   [-1, 1, Yolov7_Tiny_E_ELAN, [128, 64, nn.LeakyReLU(0.1)]], # 41

   [-1, 1, GhostConv, [128, 3, 2]],
   [[-1, 27], 1, Concat, [1]],
   [-1, 1, Yolov7_Tiny_E_ELAN, [128, 64, nn.LeakyReLU(0.1)]], # 44

   [-1, 1, GhostConv, [128, 3, 2, 1]],
   [[-1, 22], 1, Concat, [1]], #46

   [38, 1, PConv, [256]], # 47-P2
   [41, 1, PConv, [256]], # 48-P3
   [44, 1, PConv, [512]], # 49-P4
   [46, 1, PConv, [512]], # 50-P5

   [[47, 48, 49, 50], 1, IDetect, [nc, anchors]],   # Detect(P2, P3, P4, P5)
  ]