# parameters
nc: 80  # number of classes
depth_multiple: 1.0  # model depth multiple
width_multiple: 1.0  # layer channel multiple

# anchors
anchors:
  - [2.9434,4.0435, 3.8626,8.5592, 6.8534, 5.9391] # P2/4
  - [10,13, 16,30, 33,23]  # P3/8
  - [30,61, 62,45, 59,119]  # P4/16
# yolov7-tiny backbone
backbone:
  # [from, number, module, args] c2, k=1, s=1, p=None, g=1, act=True
  [[-1, 1, Conv, [32, 3, 2, None, 1]],  # 0-P1/2  
  
   [-1, 1, Conv, [64, 3, 2, None, 1]],  # 1-P2/4    
   [-1, 1, GhostConv, [64, 3, 1]],

   [-1, 1, Conv, [32, 1, 1, None, 1]],
   [-2, 1, Conv, [32, 1, 1, None, 1]],
   [-1, 1, PConv, [32]],
   [-1, 1, PConv, [32]],
   [[-1, -2, -3, -4], 1, Concat, [1]],
   [-1, 1, C3_Res2Block, [64]],  # 8
   [-1, 1, CBAM, [64]],  # 9

   
   [-1, 1, MP, []],
   [-1, 1, Conv, [64, 1, 1]],
   [-3, 1, Conv, [64, 1, 1]],
   [-1, 1, GhostConv, [64, 3, 2]],
   [[-1, -3], 1, Concat, [1]],  # 14-P3/8 
   [-1, 1, Conv, [64, 1, 1, None, 1]],
   [-2, 1, Conv, [64, 1, 1, None, 1]],
   [-1, 1, PConv, [64]],
   [-1, 1, PConv, [64]],
   [[-1, -2, -3, -4], 1, Concat, [1]],
   [-1, 1, C3_Res2Block, [128]],  # 20
   [-1, 1, CBAM, [128]],  # 21


   [-1, 1, MP, []],
   [-1, 1, Conv, [128, 1, 1]],
   [-3, 1, Conv, [128, 1, 1]],
   [-1, 1, GhostConv, [128, 3, 2]],
   [[-1, -3], 1, Concat, [1]],  # 26-P4/16 
   [-1, 1, Conv, [128, 1, 1, None, 1]],
   [-2, 1, Conv, [128, 1, 1, None, 1]],
   [-1, 1, PConv, [128]],
   [-1, 1, PConv, [128]],
   [[-1, -2, -3, -4], 1, Concat, [1]],
   [-1, 1, C3_Res2Block, [256]],  # 32
   [-1, 1, CBAM, [256]],  # 33

   [-1, 1, MP, []],
   [-1, 1, Conv, [256, 1, 1]],
   [-3, 1, Conv, [256, 1, 1]],
   [-1, 1, GhostConv, [256, 3, 2]],
   [[-1, -3], 1, Concat, [1]],  # 38-P5/32 
   [-1, 1, Conv, [256, 1, 1, None, 1]],
   [-2, 1, Conv, [256, 1, 1, None, 1]],
   [-1, 1, PConv, [256]],
   [-1, 1, PConv, [256]],
   [[-1, -2, -3, -4], 1, Concat, [1]],
   [-1, 1, GhostConv, [512, 1, 1]],  # 44
  ]

# yolov7-tiny head
head:
  [[-1, 1, Conv, [256, 1, 1, None, 1]],
   [-2, 1, Conv, [256, 1, 1, None, 1]],
   [-1, 1, SP, [5]],
   [-2, 1, SP, [9]],
   [-3, 1, SP, [13]],
   [[-1, -2, -3, -4], 1, Concat, [1]],
   [-1, 1, Conv, [256, 1, 1, None, 1]],
   [[-1, -7], 1, Concat, [1]],
   [-1, 1, Conv, [256, 1, 1, None, 1]],  # 53
   [-1, 1, RFEM, [256]], # 54
  
   [-1, 1, CoordConvATT, [128, 1, 1]],
   [-1, 1, nn.Upsample, [None, 2, 'nearest']],
   [33, 1, Conv, [128, 1, 1, None, 1]], # route backbone P4
   [[-1, -2], 1, Concat, [1]],
   
   [-1, 1, Conv, [64, 1, 1, None, 1]],
   [-2, 1, Conv, [64, 1, 1, None, 1]],
   [-1, 1, Conv, [64, 3, 1, None, 1]],
   [-1, 1, Conv, [64, 3, 1, None, 1]],
   [[-1, -2, -3, -4], 1, Concat, [1]],
   [-1, 1, ConvCBAM, [128, 1, 1, None, 1]],  # 64
  
   [-1, 1, CoordConvATT, [64, 1, 1]],
   [-1, 1, nn.Upsample, [None, 2, 'nearest']],
   [21, 1, Conv, [64, 1, 1, None, 1]], # route backbone P3
   [[-1, -2], 1, Concat, [1]],
   
   [-1, 1, Conv, [32, 1, 1, None, 1]],
   [-2, 1, Conv, [32, 1, 1, None, 1]],
   [-1, 1, Conv, [32, 3, 1, None, 1]],
   [-1, 1, Conv, [32, 3, 1, None, 1]],
   [[-1, -2, -3, -4], 1, Concat, [1]],
   [-1, 1, ConvCBAM, [64, 1, 1, None, 1]],  # 74
   
   [-1, 1, CoordConvATT, [64, 1, 1]],
   [-1, 1, nn.Upsample, [None, 2, 'nearest']],
   [9, 1, Conv, [32, 1, 1, None, 1]], # route backbone P2
   [[-1, -2], 1, Concat, [1]],

   [-1, 1, Conv, [32, 1, 1, None, 1]],
   [-2, 1, Conv, [32, 1, 1, None, 1]],
   [-1, 1, Conv, [32, 3, 1, None, 1]],
   [-1, 1, Conv, [32, 3, 1, None, 1]],
   [[-1, -2, -3, -4], 1, Concat, [1]],
   [-1, 1, Conv, [64, 1, 1, None, 1]], #84

 
   [-1, 1, Conv, [32, 1, 1, None, 1]],
   [-2, 1, Conv, [32, 1, 1, None, 1]],
   [-1, 1, Conv, [32, 3, 1, None, 1]],
   [-1, 1, Conv, [32, 3, 1, None, 1]],
   [[-1, -2, -3, -4], 1, Concat, [1]],
   [-1, 1, ConvCBAM, [64, 1, 1, None, 1]], #90

   [-1, 1, GhostConv, [128, 3, 2]],
   [[-1, 74], 1, Concat, [1]],  #cat P3
   [-1, 1, Conv, [64, 1, 1, None, 1]],
   [-2, 1, Conv, [64, 1, 1, None, 1]],
   [-1, 1, Conv, [64, 3, 1, None, 1]],
   [-1, 1, Conv, [64, 3, 1, None, 1]],
   [[-1, -2, -3, -4], 1, Concat, [1]],
   [-1, 1, ConvCBAM, [128, 1, 1, None, 1]], #98

   [-1, 1, GhostConv, [256, 3, 2]],
   [[-1, 64], 1, Concat, [1]], #cat p4
   [-1, 1, Conv, [128, 1, 1, None, 1]],
   [-2, 1, Conv, [128, 1, 1, None, 1]],
   [-1, 1, Conv, [128, 3, 1, None, 1]],
   [-1, 1, Conv, [128, 3, 1, None, 1]],
   [[-1, -2, -3, -4], 1, Concat, [1]],
   [-1, 1, ConvCBAM, [256, 1, 1, None, 2]],  # 106
      
   [90, 1, RepConv, [128, 3, 1, None, 2]], # 90-P2
   [98, 1, RepConv, [256, 3, 1, None, 4]], # 91-P3
   [106, 1, RepConv, [512, 3, 1, None, 8]], # 92-P4

   [[107, 108, 109], 1, IDetect, [nc, anchors]],   # Detect(P2, P3, P4, P5)
  ]