# parameters
nc: 80  # number of classes
depth_multiple: 1.0  # model depth multiple
width_multiple: 0.5  # layer channel multiple

# anchors
anchors:
  - [2.9434,4.0435, 3.8626,8.5592, 6.8534, 5.9391] # P2/4
  - [10,13, 16,30, 33,23]  # P3/8
  - [30,61, 62,45, 59,119]  # P4/16
  - [116,90, 156,198, 373,326]  # P5/32
# yolov7-tiny backbone
backbone:
  # [from, number, module, args] c2, k=1, s=1, p=None, g=1, act=True
  [[-1, 1, Conv, [32, 3, 2, None, 1]],  # 0-P1/2  
  
   [-1, 1, Conv, [64, 3, 2, None, 1]],  # 1-P2/4    
   [-1, 1, GhostConv, [64, 3, 1]],

   [-1, 1, Conv, [32, 1, 1, None, 1]],
   [-2, 1, Conv, [32, 1, 1, None, 1]],
   [-1, 1, PConv, [32]],
   [-1, 1, PConv, [32]],
   [-1, 1, PConv, [32]],
   [-1, 1, PConv, [32]],
   [[-1, -3, -5, -6], 1, Concat, [1]], # sz 160
   [-1, 1, C3_Res2Block, [64]],  # 10
   
   [-1, 1, MP, []],
   [-1, 1, Conv, [64, 1, 1]],
   [-3, 1, Conv, [64, 1, 1]],
   [-1, 1, GhostConv, [64, 3, 2]],
   [[-1, -3], 1, Concat, [1]],  # 16-P3/8 # sz 80
   [-1, 1, Conv, [64, 1, 1, None, 1]],
   [-2, 1, Conv, [64, 1, 1, None, 1]],
   [-1, 1, PConv, [64]],
   [-1, 1, PConv, [64]],
   [-1, 1, PConv, [64]],
   [-1, 1, PConv, [64]],
   [[-1, -3, -5, -6], 1, Concat, [1]], # sz 80
   [-1, 1, C3_Res2Block, [128]],  # 23

   [-1, 1, MP, []],
   [-1, 1, Conv, [128, 1, 1]],
   [-3, 1, Conv, [128, 1, 1]],
   [-1, 1, GhostConv, [128, 3, 2]],
   [[-1, -3], 1, Concat, [1]],  # 30-P4/16 # sz 40 
   [-1, 1, Conv, [128, 1, 1, None, 1]],
   [-2, 1, Conv, [128, 1, 1, None, 1]],
   [-1, 1, PConv, [128]],
   [-1, 1, PConv, [128]],
   [-1, 1, PConv, [128]],
   [-1, 1, PConv, [128]],
   [[-1, -3, -5, -6], 1, Concat, [1]], # sz40
   [-1, 1, C3_Res2Block, [256]],  # 36

   [-1, 1, MP, []],
   [-1, 1, Conv, [256, 1, 1]], # 41 *
   [-3, 1, Conv, [256, 1, 1]], 
   [-1, 1, GhostConv, [256, 3, 2, 1]], # 43 *
   [[-1, -3], 1, Concat, [1]],  # 44-P5/32  # sz 20 ----> Loi tai day
   [-1, 1, Conv, [256, 1, 1, None, 1]],
   [-2, 1, Conv, [256, 1, 1, None, 1]],
   [-1, 1, PConv, [256]],
   [-1, 1, PConv, [256]],
   [-1, 1, PConv, [256]],
   [-1, 1, PConv, [256]],
   [[-1, -3, -5, -6], 1, Concat, [1]], # sz 20
   [-1, 1, C3_Res2Block, [256]],  # 52
  ]

# yolov7-tiny head
head:
  [[-1, 1, SPPRFEM, [512]], # 50
  
   [-1, 1, CoordConvATT, [128, 1, 1]], # sz 20
   [-1, 1, nn.Upsample, [None, 2, 'nearest']],
   [36, 1, Conv, [128, 1, 1, None, 1]], # route backbone P4
   [[-1, -2], 1, Concat, [1]], # sz 40
   
   [-1, 1, Conv, [64, 1, 1, None, 1]],
   [-2, 1, Conv, [64, 1, 1, None, 1]],
   [-1, 1, Conv, [64, 3, 1, None, 1]],
   [-1, 1, Conv, [64, 3, 1, None, 1]],
   [[-1, -2, -3, -4], 1, Concat, [1]], # sz 40
   [-1, 1, C3_Res2Block, [128]],  # 60
  
   [-1, 1, CoordConvATT, [64, 1, 1]], #sz 40
   [-1, 1, nn.Upsample, [None, 2, 'nearest']],
   [23, 1, Conv, [64, 1, 1, None, 1]], # route backbone P3
   [[-1, -2], 1, Concat, [1]], # sz 80
   
   [-1, 1, Conv, [32, 1, 1, None, 1]],
   [-2, 1, Conv, [32, 1, 1, None, 1]],
   [-1, 1, Conv, [32, 3, 1, None, 1]],
   [-1, 1, Conv, [32, 3, 1, None, 1]],
   [[-1, -2, -3, -4], 1, Concat, [1]], # sz 80
   [-1, 1, C3_Res2Block, [64]],  # 70
   
   [-1, 1, CoordConvATT, [32, 1, 1]], # sz 80
   [-1, 1, nn.Upsample, [None, 2, 'nearest']],
   [10, 1, Conv, [32, 1, 1, None, 1]], # route backbone P2
   [[-1, -2], 1, Concat, [1]], # sz 160

   [-1, 1, Conv, [32, 1, 1, None, 1]],
   [-2, 1, Conv, [32, 1, 1, None, 1]],
   [-1, 1, Conv, [32, 3, 1, None, 1]],
   [-1, 1, Conv, [32, 3, 1, None, 1]],
   [[-1, -2, -3, -4], 1, Concat, [1]], # sz 160
   [-1, 1, C3_Res2Block, [64]], #80

 
   [-1, 1, Conv, [32, 1, 1, None, 1]],
   [-2, 1, Conv, [32, 1, 1, None, 1]],
   [-1, 1, Conv, [32, 3, 1, None, 1]],
   [-1, 1, Conv, [32, 3, 1, None, 1]],
   [[-1, -2, -3, -4], 1, Concat, [1]], # sz 160
   [-1, 1, Conv, [64, 1, 1, None, 1]], #86

   [-1, 1, GhostConv, [128, 3, 2]],
   [[-1, 70], 1, Concat, [1]],  #cat P3 # sz 80
   [-1, 1, Conv, [64, 1, 1, None, 1]],
   [-2, 1, Conv, [64, 1, 1, None, 1]],
   [-1, 1, Conv, [64, 3, 1, None, 1]],
   [-1, 1, Conv, [64, 3, 1, None, 1]],
   [[-1, -2, -3, -4], 1, Concat, [1]], # sz 80
   [-1, 1, Conv, [128, 1, 1, None, 1]], #94

   [-1, 1, GhostConv, [256, 3, 2, 1]],
   [[-1, 60], 1, Concat, [1]], #cat p4 # sz 40 
   [-1, 1, Conv, [128, 1, 1, None, 1]],
   [-2, 1, Conv, [128, 1, 1, None, 1]],
   [-1, 1, Conv, [128, 3, 1, None, 1]],
   [-1, 1, Conv, [128, 3, 1, None, 1]],
   [[-1, -2, -3, -4], 1, Concat, [1]], # sz 40 
   [-1, 1, Conv, [256, 1, 1, None, 1]],  # 102

   [-1, 1, GhostConv, [128, 3, 2, 1]],
   [[-1, 50], 1, Concat, [1]], #cat p4 # sz 40 

   [86, 1, PConv, [256]], # 90-P2
   [94, 1, PConv, [256]], # 91-P3
   [102, 1, PConv, [512]], # 92-P4
   [104, 1, PConv, [512]], # 92-P4

   [[105, 106, 107, 108], 1, IDetect, [nc, anchors]],   # Detect(P2, P3, P4, P5)
  ]