# parameters
nc: 80  # number of classes
depth_multiple: 1.0  # model depth multiple
width_multiple: 1.0  # layer channel multiple

# anchors
anchors:
  - [10,13, 16,30, 33,23]  # P3/8
  - [30,61, 62,45, 59,119]  # P4/16
  - [116,90, 156,198, 373,326]  # P5/32

# yolov7-tiny backbone
backbone:
  # [from, number, module, args] c2, k=1, s=1, p=None, g=1, act=True
  [[-1, 1, Conv, [32, 3, 1, None, 1]],  # 0  

   [-1, 1, Conv, [64, 3, 2, None, 1]],  # 1-P1/2  
   [-1, 1, GhostConv, [64,3,1]],
   [-1, 1, PC, [64]],  # 3-P2/4    
   
   [-1, 1, Conv, [32,1,1,None,1]],
   [-2, 1, C3_Res2Block, [32]],
   [-1, 1, Conv, [32, 3, 1, None, 1]],
   [-1, 1, Conv, [32, 3, 1, None, 1]],
   [[-1, -2, -3, -4], 1, Concat, [1]],
   [-1, 1, Conv, [64, 1, 1, None, 1]],  # 9
   
   [-1, 1, MPC, [64]],  # 10-P3/8
   [-1, 1, Conv, [64,1,1,None,1]],
   [-2, 1, C3_Res2Block, [64]],
   [-1, 1, Conv, [64, 3, 1, None, 1]],
   [-1, 1, Conv, [64, 3, 1, None, 1]],
   [[-1, -2, -3, -4], 1, Concat, [1]],
   [-1, 1, Conv, [128, 1, 1, None, 1]],  # 16
   
   [-1, 1, MPC, [128]],  # 17-P4/16
   [-1, 1, Conv, [128, 1, 1, None, 1]],
   [-2, 1, C3_Res2Block, [128]],
   [-1, 1, Conv, [128, 3, 1, None, 1]],
   [-1, 1, Conv, [128, 3, 1, None, 1]],
   [[-1, -2, -3, -4], 1, Concat, [1]],
   [-1, 1, Conv, [256, 1, 1, None, 1]],  # 23
   
   [-1, 1, MPC, [256]],  # 24-P5/32
   [-1, 1, Conv, [256, 1, 1, None, 1]],
   [-2, 1, C3_Res2Block, [256]],
   [-1, 1, Conv, [256, 3, 1, None, 1]],
   [-1, 1, Conv, [256, 3, 1, None, 1]],
   [[-1, -2, -3, -4], 1, Concat, [1]],
   [-1, 1, Conv, [512, 1, 1, None, 1]],  # 30
  ]

# yolov7-tiny head
head:
  [[-1, 1, GhostSPPCSPC, [256]], # 31
   [-1, 1, RFEM, [256]], # 32

   [-1, 1, CoordConvATT, [128, 1, 1]],
   [-1, 1, nn.Upsample, [None, 2, 'nearest']],
   [23, 1, CoordConvATT, [128, 1, 1]], # route backbone P4
   [[-1, -2], 1, ConcatSE, [1]],
   
   [-1, 1, Conv, [64, 1, 1, None, 1]],
   [-2, 1, C3_Res2Block, [64,False]],
   [-1, 1, Conv, [64, 3, 1, None, 1]],
   [-1, 1, Conv, [64, 3, 1, None, 1]],
   [[-1, -2, -3, -4], 1, Concat, [1]],
   [-1, 1, Conv, [128, 1, 1, None, 1]],  # 42
  
   [-1, 1, CoordConvATT, [64, 1, 1]],
   [-1, 1, nn.Upsample, [None, 2, 'nearest']],
   [16, 1, CoordConvATT, [64, 1, 1]], # route backbone P3
   [[-1, -2], 1, ConcatSE, [1]],
   
   [-1, 1, Conv, [32, 1, 1, None, 1]],
   [-2, 1, C3_Res2Block, [32,False]],
   [-1, 1, Conv, [32, 3, 1, None, 1]],
   [-1, 1, Conv, [32, 3, 1, None, 1]],
   [[-1, -2, -3, -4], 1, Concat, [1]],
   [-1, 1, Conv, [64, 1, 1, None, 1]],  # 52
   
   [-1, 1, PC, [128]],
   [[-1, 42], 1, ConcatSE, [1]],
   
   [-1, 1, Conv, [64, 1, 1, None, 1]],
    [-2, 1, C3_Res2Block, [64,False]],
   [-1, 1, Conv, [64, 3, 1, None, 1]],
   [-1, 1, Conv, [64, 3, 1, None, 1]],
   [[-1, -2, -3, -4], 1, Concat, [1]],
   [-1, 1, Conv, [128, 1, 1, None, 1]],  # 60
   
   [-1, 1, PC, [256]],
   [[-1, 32], 1, ConcatSE, [1]],
   
   [-1, 1, Conv, [128, 1, 1, None, 1]],
   [-2, 1, C3_Res2Block, [128, False]],
   [-1, 1, Conv, [128, 3, 1, None, 1]],
   [-1, 1, Conv, [128, 3, 1, None, 1]],
   [[-1, -2, -3, -4], 1, Concat, [1]],
   [-1, 1, Conv, [256, 1, 1, None, 1]],  # 68
      
   [52, 1, RepConv, [128, 3, 1, None, 1]],
   [60, 1, RepConv, [256, 3, 1, None, 1]],
   [68, 1, RepConv, [512, 3, 1, None, 1]],

   [[69,70,71], 1, IDetect, [nc, anchors]],   # Detect(P3, P4, P5)
  ]