# parameters
nc: 80  # number of classes
depth_multiple: 1.0  # model depth multiple
width_multiple: 1.0  # layer channel multiple

# anchors
anchors:
  - [2.9434,4.0435, 3.8626,8.5592, 6.8534, 5.9391] # P2/4
  - [10,13, 16,30, 33,23]  # P3/8
  - [116,90, 156,198, 373,326]  # P5/32

# yolov7-tiny backbone
backbone:
  # [from, number, module, args] c2, k=1, s=1, p=None, g=1, act=True
  [[-1, 1, Conv, [32, 3, 2, None, 1]],  # 0-P1/2  
  
   [-1, 1, DGC, [64]],  # 1-P2/4    
   
   [-1, 1, Conv, [32, 1, 1, None, 1]],
   [-2, 1, C3_Res2Block, [32]],
   [-1, 1, Conv, [32, 3, 1, None, 2]],
   [-1, 1, Conv, [32, 3, 1, None, 2]],
   [[-1, -2, -3, -4], 1, Concat, [1]],
   [-1, 1, ConvCBAM, [64, 1, 1, None, 1]],  # 7
   
   [-1, 1, MDGC, [64]],  # 8-P3/8
   [-1, 1, Conv, [64, 1, 1, None, 1]],
   [-2, 1, C3_Res2Block, [64]],
   [-1, 1, Conv, [64, 3, 1, None, 2]],
   [-1, 1, Conv, [64, 3, 1, None, 2]],
   [[-1, -2, -3, -4], 1, Concat, [1]],
   [-1, 1, ConvCBAM, [128, 1, 1, None, 1]],  # 14
   
   [-1, 1, MDGC, [128]],  # 15-P4/16
   [-1, 1, Conv, [128, 1, 1, None, 1]],
   [-2, 1, C3_Res2Block, [128]],
   [-1, 1, Conv, [128, 3, 1, None, 4]],
   [-1, 1, Conv, [128, 3, 1, None, 4]],
   [[-1, -2, -3, -4], 1, Concat, [1]],
   [-1, 1, ConvCBAM, [256, 1, 1, None, 1]],  # 21
   
   [-1, 1, MDGC, [256]],  # 22-P5/32
   [-1, 1, Conv, [256, 1, 1, None, 1]],
   [-2, 1, C3_Res2Block, [256]],
   [-1, 1, Conv, [256, 3, 1, None, 4]],
   [-1, 1, Conv, [256, 3, 1, None, 4]],
   [[-1, -2, -3, -4], 1, Concat, [1]],
   [-1, 1, ConvCBAM, [512, 1, 1, None, 4]],  # 28
  ]

# yolov7-tiny head
head:
  [[-1, 1, SPPF, [256]], # 29
   [-1, 1, RFEM, [256]], # 30
  
   [-1, 1, CoordConvATT, [128, 1, 1]],
   [-1, 1, nn.Upsample, [None, 4, 'nearest']],
   [14, 1, CoordConvATT, [128, 1, 1]], # route backbone P3
   [[-1, -2], 1, ConcatSE, [1]],
   
   [-1, 1, Conv, [64, 1, 1, None, 1]],
   [-2, 1, C3_Res2Block, [64, False]],
   [-1, 1, Conv, [64, 3, 1,None,4]],
   [-1, 1, Conv, [64, 3, 1,None,4]],
   [[-1, -2, -3, -4], 1, Concat, [1]],
   [-1, 1, ConvCBAM, [128, 1, 1, None, 1]],  # 40
  
   [-1, 1, CoordConvATT, [64, 1, 1]],
   [-1, 1, nn.Upsample, [None, 2, 'nearest']],
   [7, 1, CoordConvATT, [64, 1, 1]], # route backbone P2
   [[-1, -2], 1, ConcatSE, [1]],
   
   [-1, 1, Conv, [32, 1, 1, None, 1]],
   [-2, 1, C3_Res2Block, [32, False]],
   [-1, 1, Conv, [32, 3, 1,None,2]],
   [-1, 1, Conv, [32, 3, 1,None,2]],
   [[-1, -2, -3, -4], 1, Concat, [1]],
   [-1, 1, Conv, [64, 1, 1, None, 1]],  # 50
   
   [-1, 1, Conv, [32, 1, 1, None, 1]],
   [-2, 1, C3_Res2Block, [32, False]],
   [-1, 1, Conv, [32, 3, 1, None,4]],
   [-1, 1, Conv, [32, 3, 1, None,4]],
   [[-1, -2, -3, -4], 1, Concat, [1]],
   [-1, 1, ConvCBAM, [64, 1, 1, None, 1]],  # 56

   [-1, 1, DGC, [128]],
   [[-1, 40], 1, ConcatSE, [1]],  #cat P3
   [-1, 1, Conv, [64, 1, 1, None, 1]],
   [-2, 1, C3_Res2Block, [64,False]],
   [-1, 1, Conv, [64, 3, 1,None, 4]],
   [-1, 1, Conv, [64, 3, 1,None, 4]],
   [[-1, -2, -3, -4], 1, Concat, [1]],
   [-1, 1, ConvCBAM, [128, 1, 1, None, 1]],  # 64
   
   [-1, 1, Conv, [256, 3, 4, None, 2]],
   [[-1, 30], 1, ConcatSE, [1]], #route P5
   [-1, 1, Conv, [128, 1, 1, None, 1]],
   [-2, 1, C3_Res2Block, [128, False]],
   [-1, 1, Conv, [128, 3, 1, None,4]],
   [-1, 1, Conv, [128, 3, 1, None,4]],
   [[-1, -2, -3, -4], 1, Concat, [1]],
   [-1, 1, ConvCBAM, [256, 1, 1, None, 1]],  # 72
      
   [56, 1, RepConv, [128, 3, 1, None, 2]],
   [64, 1, RepConv, [256, 3, 1, None, 4]],
   [72, 1, RepConv, [512, 3, 1, None, 8]],

   [[73,74,75], 1, IDetect, [nc, anchors]],   # Detect(P3, P4, P5)
  ]
